…
      "execution_count": null,
      "outputs": [
        {
          "output_type": "stream",
          "text": [
            "Model: \"functional_3\"\n",
            "_________________________________________________________________\n",
            "Layer (type)                 Output Shape              Param #   \n",
            "=================================================================\n",
            "input_4 (InputLayer)         [(None, 224, 224, 3)]     0         \n",
            "_________________________________________________________________\n",
            "block1_conv1 (Conv2D)        (None, 224, 224, 64)      1792      \n",
            "_________________________________________________________________\n",
            "block1_conv2 (Conv2D)        (None, 224, 224, 64)      36928     \n",
            "_________________________________________________________________\n",
            "block1_pool (MaxPooling2D)   (None, 112, 112, 64)      0         \n",
            "_________________________________________________________________\n",
            "block2_conv1 (Conv2D)        (None, 112, 112, 128)     73856     \n",
            "_________________________________________________________________\n",
            "block2_conv2 (Conv2D)        (None, 112, 112, 128)     147584    \n",
            "_________________________________________________________________\n",
            "block2_pool (MaxPooling2D)   (None, 56, 56, 128)       0         \n",
            "_________________________________________________________________\n",
            "flatten_2 (Flatten)          (None, 401408)            0         \n",
            "_________________________________________________________________\n",
            "dense_3 (Dense)              (None, 32)                12845088  \n",
            "_________________________________________________________________\n",
            "dense_4 (Dense)              (None, 2)                 66        \n",
            "=================================================================\n",
            "Total params: 13,105,314\n",
            "Trainable params: 12,845,154\n",
            "Non-trainable params: 260,160\n",
            "_________________________________________________________________\n"
          ],
          "name": "stdout"
        }
      ]
    },
    {
      "cell_type": "code",
…
        "outputId": "fc374df7-48f8-487b-fe5a-d7e916db2252"
      },
      "source": [
        "model.compile(loss=\"categorical_crossentropy\", optimizer=\"adam\", metrics=[\"accuracy\"])\n",
        "\n",
        "print(model.summary())"
      ],
      "execution_count": null,
      "outputs": [
        {
          "output_type": "stream",
          "text": [
            "_________________________________________________________________\n",
            "Layer (type)                 Output Shape              Param #   \n",
            "=================================================================\n",
            "conv2d (Conv2D)              (None, 28, 28, 32)        832       \n",
            "_________________________________________________________________\n",
            "conv2d_1 (Conv2D)            (None, 28, 28, 32)        25632     \n",
            "_________________________________________________________________\n",
            "max_pooling2d (MaxPooling2D) (None, 14, 14, 32)        0         \n",
            "_________________________________________________________________\n",
            "dropout (Dropout)            (None, 14, 14, 32)        0         \n",
            "_________________________________________________________________\n",
            "conv2d_2 (Conv2D)            (None, 14, 14, 64)        18496     \n",
            "_________________________________________________________________\n",
            "conv2d_3 (Conv2D)            (None, 14, 14, 64)        36928     \n",
            "_________________________________________________________________\n",
            "max_pooling2d_1 (MaxPooling2 (None, 7, 7, 64)          0         \n",
            "_________________________________________________________________\n",
            "dropout_1 (Dropout)          (None, 7, 7, 64)          0         \n",
            "_________________________________________________________________\n",
            "flatten (Flatten)            (None, 3136)              0         \n",
            "_________________________________________________________________\n",
            "dense (Dense)                (None, 256)               803072    \n",
            "_________________________________________________________________\n",
            "dropout_2 (Dropout)          (None, 256)               0         \n",
            "_________________________________________________________________\n",
            "dense_1 (Dense)              (None, 10)                2570      \n",
            "=================================================================\n",
            "Total params: 887,530\n",
            "Trainable params: 887,530\n",
            "Non-trainable params: 0\n",
            "_________________________________________________________________\n",
            "None\n"
          ],
          "name": "stdout"
        }
      ]
    },
    {
      "cell_type": "markdown",
…
